models/cartw40_step1.pth (torch, 25415 bytes, 10 tensors)

weight f4 [40, 4]
000000 cf 3c f0 3e 06 7e d2 bc 81 93 33 be 83 38 75 be
       0.46921393 -0.025694858 -0.17536737 -0.23947339
000010 7d 72 da bc 3d 1b ee bb 2a a6 b4 be de eb b2 3e
       -0.02666592 -0.0072664306 -0.35283023 0.34945577
000020 9a 8e b2 3d 81 b0 44 3d e9 43 c1 be 08 a3 f6 3e
       0.08718605 0.04801989 -0.37747124 0.48171258
000030 ea 53 16 be 5f bd 87 3e 42 ac 9d be 13 59 a4 bd
       -0.14680448 0.26511666 -0.30795485 -0.08024802
000040 b3 5b 88 3c 2c 63 88 3c 2b 80 80 bd 4b 49 cb bd
       0.016645288 0.016648851 -0.06274446 -0.09926089
000050 bd 7e 71 be 79 3a ee bd 39 b7 f3 be 1d d8 a6 3e
       -0.23583503 -0.116322465 -0.47600725 0.32586756
000060 b3 d9 3a be 87 b0 db 3c 1f 2a fa be d0 9b dc be
       -0.18247108 0.026817573 -0.4886026 -0.43087626
000070 a2 68 a7 be d4 bb 41 3e 36 87 ee 3e 00 03 70 3b
       -0.32697016 0.18919307 0.46587533 0.0036622882
000080 dc f7 e5 3e 08 07 d0 be 67 5b 12 bf 31 6d 03 3e
       0.44915664 -0.40630364 -0.5717072 0.12834622
000090 9d 31 97 be aa 90 8e be f1 06 bb 3e 0c cb 18 bd
       -0.2953004 -0.27844745 0.36528733 -0.037303016
0000a0 fa d6 a3 3e 4c 87 3a be 40 14 76 3d bc 51 f5 3e
       0.31999952 -0.18215674 0.060077906 0.4791392
0000b0 5e 42 32 3e 55 3f ce 3e e2 b4 4d 3f 3c 68 84 3e
       0.1740813 0.40282694 0.8035413 0.25860775
0000c0 7e 53 d4 3e d1 0c 7c be 44 b9 dd 3d ae ee a9 bd
       0.4146995 -0.24614264 0.10826352 -0.08297478
0000d0 50 7c 69 be fa b9 8e be 38 3d 5f 3e dc c3 7f 3e
       -0.22801328 -0.27876264 0.21800697 0.24977058
0000e0 58 02 2b 3e 76 c5 11 3f 43 1c 4e 3d cb 11 50 3e
       0.16700113 0.56941926 0.05031992 0.20319287
0000f0 71 21 a5 3e ef a3 5a bc 40 18 87 be 29 52 f8 be
       0.32252076 -0.013344749 -0.2638569 -0.48500183
000100 a9 d0 0c 3f 2b 75 8b bd 03 2d 16 3e 6b d8 3c 3e
       0.5500589 -0.068094574 0.14665608 0.18441932
000110 ef 46 be be ce 39 81 3e 3c cc ab 3e cb f6 9a be
       -0.37163493 0.25239414 0.33554256 -0.30266413
000120 50 59 43 be ba 9c c6 3d 65 94 d8 3e 72 86 ec 3e
       -0.19077039 0.09697862 0.42300716 0.46196324
000130 a0 bf cd bd 10 1c 75 be b8 b4 72 3e b0 e7 aa bd
       -0.10046315 -0.23936486 0.23701751 -0.08344972
000140 7d 1f c9 3d 8c f2 b9 be e6 1d 0b 3e 96 1d ae 3d
       0.09820459 -0.3631786 0.13585624 0.08501737
000150 08 58 1c be 25 9e e9 3d 15 d7 b3 3e 71 56 04 bf
       -0.15267956 0.11407117 0.35125032 -0.516944
000160 2e 38 e8 3e bf 20 a1 be 85 5f ec be 35 98 a5 3d
       0.45355362 -0.31470296 -0.46166626 0.08085672
000170 80 e2 02 3f 2d ed a4 be 0c 16 03 bf 1b 52 bd 3e
       0.5112686 -0.322122 -0.51205516 0.36976704
000180 51 02 28 be a8 5c d6 be f5 a3 db be 06 ee 22 be
       -0.16407134 -0.41867566 -0.42898527 -0.15911111
000190 07 5b 02 bf 92 44 eb be 88 3c 2d 3e c8 fd d3 bd
       -0.50920147 -0.45950752 0.16917622 -0.10351139
0001a0 70 db a8 3e a7 f8 d9 3e 00 4a 28 3e 98 c6 92 3e
       0.32979918 0.4257252 0.16434479 0.2866714
0001b0 1e 8f 8f be 50 35 a4 3e 60 97 d7 bc ac 15 c8 3e
       -0.28038877 0.32071924 -0.026317298 0.39079034
0001c0 75 cd bb 3e 91 6b a0 be 4b 51 b4 be 52 69 5f be
       0.3668019 -0.31332067 -0.35218272 -0.2181752
0001d0 8f ff 19 3e 46 99 d8 3e 31 c8 a3 3d 08 80 fa 3d
       0.15038894 0.42304438 0.07997168 0.12231451
0001e0 d7 a1 a9 bc d9 fe f0 be fb 8a 8f 3d fd 69 e6 be
       -0.020707054 -0.47069433 0.0700893 -0.45002738
0001f0 ca a1 99 be 1d e7 ed 3d 2d ec 60 be d0 f7 04 bf
       -0.30006248 0.11616347 -0.21965094 -0.5194063
000200 b0 d3 cd be 66 89 8e 3e 40 e1 58 bd ac 83 db 3e
       -0.40200567 0.27839202 -0.05294919 0.42873895
000210 85 b3 be 3e 6a 2c 01 3f 19 eb 4a 3e 91 ae 0a bf
       0.37246338 0.50458395 0.19816245 -0.5417262
000220 d0 69 12 be 0a 6b 9d 3e 2c c0 a0 bd 90 7b 7e be
       -0.14298177 0.30745727 -0.07849154 -0.24851823
000230 49 c0 5d bd 87 79 c9 3e 14 72 76 be aa 36 a8 be
       -0.054138456 0.3935053 -0.24066955 -0.32854205
000240 c2 fc a3 be dc 82 44 3e c8 66 b7 3d e0 c1 b5 bc
       -0.32028776 0.19190544 0.08955151 -0.022187173
000250 99 4a 77 3e ca 25 0f 3f 75 c5 18 3e 1d d7 27 3e
       0.2414955 0.55917037 0.14919074 0.16390653
000260 8e 88 f6 3e 4c fa d0 3d ea ba 9c 3e fb 7f b6 be
       0.48151058 0.1020399 0.30611354 -0.35644516
000270 ce 7a 94 be 40 ea 20 bd d4 8f 2b 3e c4 6a 4c 3e
       -0.28999943 -0.0392859 0.16754085 0.19962603

bias f4 [40]
000000 72 47 a5 be 7b 6e d2 bd 2e ce ba 3e 06 26 d4 be
       -0.3228107 -0.10274979 0.36485428 -0.4143526
000010 f2 12 e9 3e 8f 67 1d bf 8a 92 7f 3b 58 e1 9b bd
       0.45522267 -0.6148614 0.0038997256 -0.0761134
000020 82 6a b9 bd b6 46 20 3d 14 b0 1b be c1 39 9e 3e
       -0.09053518 0.039129935 -0.15203887 0.30903438
000030 03 e4 fd 3e e8 86 a3 bd 43 9e f1 3e 29 d1 01 be
       0.49588022 -0.07984716 0.47191057 -0.12677445
000040 e6 8b e6 3e 03 8f 18 3e 03 a9 28 bc 64 ba f4 be
       0.4502861 0.14898305 -0.010294202 -0.47798455
000050 52 21 e6 3e b7 64 e6 3c 2e a2 1e bd 6d 97 33 be
       0.44947296 0.028124196 -0.038728885 -0.17538233
000060 83 f4 9c bd da 10 8c 3c d6 87 73 3e 8e 0e c4 be
       -0.076638244 0.01709788 0.23782286 -0.38292354
000070 59 0f ec bd fa c2 ed 3e cf 28 06 3f f3 d5 b2 3d
       -0.11526365 0.46437818 0.5240602 0.08732214
000080 be 5e 85 be e3 78 50 be 98 bd 97 be fe e1 ab be
       -0.26048845 -0.20358615 -0.29636836 -0.33570856
000090 4a 4b a8 be 5a 19 33 3f f6 6e 84 be 24 27 9a be
       -0.3286994 0.6996056 -0.25865906 -0.30107987

weight f4 [40, 40]
000000 4e 58 d3 bd a8 00 f6 3d f7 32 8d bb 55 d9 ac 3d
       -0.10319577 0.12011844 -0.004309054 0.0843989
000010 ac c1 d4 bb 10 39 8a 3d 87 85 03 3e 72 d3 15 3e
       -0.006492814 0.06749165 0.12843905 0.14631441
000020 bf 8e 11 bd 0a 48 0c be f9 98 34 bc a6 0b 12 bd
       -0.035536524 -0.13699356 -0.0110228 -0.03565564
000030 18 92 15 be e0 8d ac bd 01 d3 89 3d eb b1 49 3d
       -0.14606512 -0.08425498 0.06729699 0.04924194
000040 86 e1 95 3d 47 04 0b be a2 82 43 3b 0e 64 16 be
       0.07318406 -0.1357585 0.0029832502 -0.14686605
000050 ea 48 72 ba 19 54 bb 3d 78 28 70 3d f2 21 9a 3d
       -0.00092424324 0.091469 0.058632344 0.07526006
000060 1e 04 13 be be 3c 8f 3c 14 dd f2 bd 63 01 12 3e
       -0.1435704 0.017485019 -0.118585736 0.14258341
000070 24 27 12 bd 8b de de bd 5e 5c d2 bd 0a 41 6f bd
       -0.03568186 -0.108822905 -0.10271524 -0.058411635
000080 82 06 9a bd 47 0f d3 bd 12 9c c1 bd 9b ee d0 bd
       -0.075207725 -0.10305648 -0.09453596 -0.102017604
000090 6a 09 cc 3d 90 4f c3 bd 27 d1 01 3e f8 63 e5 3d
       0.09962733 -0.0953666 0.12677442 0.11200708
0000a0 0e 1b 30 3d 59 68 97 3d 10 92 d1 bd a8 3f 01 be
       0.04299455 0.073929496 -0.10232937 -0.12621939
0000b0 bd 38 a7 bd e8 1d 67 3d 0f a6 00 3e eb 7f 86 3d
       -0.08165119 0.056425005 0.12563346 0.06567367
0000c0 cb a3 38 3e 58 93 f8 bd a4 52 10 3e 20 f1 97 bd
       0.18031232 -0.121374786 0.14094025 -0.07419038
0000d0 02 cc b7 3d ff bc 94 3d c7 08 e4 bc 74 7c cb 3d
       0.08974458 0.07262611 -0.027836217 0.09935847
0000e0 cd 20 8a 3e 42 92 6a 3e 76 fb 99 bd 57 5b 14 be
       0.2697815 0.22907355 -0.075186655 -0.14487968
0000f0 5f 28 8c bd ab cc e8 b9 05 d0 21 bd 42 28 f8 3d
       -0.06843638 -0.00044402978 -0.039505024 0.121170536
000100 db d3 24 3e 11 b3 a9 bd 6e 19 a9 3d f2 c8 e0 3d
       0.16096441 -0.08286107 0.082568035 0.10975827
000110 97 62 c1 bb 74 76 b8 3c f1 24 53 3d 68 7b 8e 3c
       -0.0059016454 0.02251742 0.051548902 0.017392829
000120 a8 43 08 3e e0 0d ea 3d 54 56 0f be 66 7e 5d 3d
       0.13307059 0.11428428 -0.13997775 0.05407562
000130 7d a1 4a bd 7d 82 0e bd 5c 5c 26 3d 85 2d 1e bc
       -0.049470413 -0.034792412 0.040615425 -0.009654407
000140 09 73 ac 3d a9 41 08 bd 96 eb d7 bd c7 cb 25 bd
       0.08420379 -0.033265743 -0.10542981 -0.04047754
000150 a0 fa 81 bd 35 6a ab 3d 75 ae 0b be 8e 8b 4b 3d
       -0.06346631 0.08369867 -0.13640769 0.049693637
000160 ed b4 15 be e3 0f 24 bc e4 84 05 be 14 3d a3 3e
       -0.14619799 -0.010013553 -0.13038975 0.31882536
000170 7d dc 5c 3d ed 4f ce bd e4 53 bf 3e 01 3f b4 bc
       0.05392121 -0.100738384 0.3736869 -0.022002699
000180 4f d7 49 3d e2 1c 3f 3d 5b 75 0e 3e ff eb d3 bd
       0.0492776 0.046658404 0.13911955 -0.10347747
000190 d6 73 c3 3d c7 9d bc 3d 0d fe 3d be 45 09 dd bd
       0.09543578 0.09209781 -0.18553944 -0.10792784
0001a0 08 55 a6 be 70 b8 86 3c 9a c6 f8 3e c1 bf 58 bd
       -0.3248675 0.016445369 0.4858902 -0.052917246
0001b0 84 87 8f 3d d6 c4 c1 3e 73 cb 8f 3d a2 9d 46 be
       0.070082694 0.37845486 0.07021227 -0.1939607
0001c0 b4 39 0f 3e 70 3d 17 3d 7c e6 4a bd af 2a d4 3d
       0.13986856 0.036923826 -0.049536213 0.10359704
0001d0 7a 26 0d be 03 57 b7 3e 82 d0 f7 3c 18 57 7a bd
       -0.13784209 0.35808572 0.030250791 -0.061118215
0001e0 0d 8b b3 3d 9e ae f3 bd 03 fe 97 bc ef 9e 5f 3d
       0.08766756 -0.1189854 -0.01855374 0.05459493
0001f0 ce 25 81 bd 74 bc a1 3d aa df ae bc df f3 a9 3d
       -0.06306039 0.07897273 -0.021346886 0.08298468
000200 93 a1 6b 3e 7f 82 b7 3c 4a f4 d5 3d 0f a0 a6 be
       0.23010854 0.022401093 0.10446985 -0.3254399
000210 06 dc 92 3d f3 cd ff 3d 47 26 7d bd 31 55 62 3e
       0.071708724 0.124904536 -0.061804082 0.2210281
000220 85 a0 d3 bd 49 e8 48 3d 31 8d 0d 3e 81 c0 6e 38
       -0.10333351 0.04904965 0.13823391 5.6922905e-05
000230 54 92 78 bd b7 d8 ce 3d 57 22 b3 3d f6 61 7d 3e
       -0.060686424 0.10099929 0.08746784 0.247444
000240 0a 66 63 bc dd e9 58 3d 58 29 c5 bd 44 57 ee bd
       -0.0138793085 0.052957404 -0.09627026 -0.11637738
000250 89 08 99 bd 1a 3c 93 3c a6 2c 00 3e ac c4 00 bc
       -0.07472331 0.017972995 0.12517032 -0.00785939
000260 80 e3 00 bd 8d 7f 07 bc 7c 6f 00 3e 27 03 f9 3d
       -0.03146696 -0.008270157 0.12542528 0.121588044
000270 9f 6f ea bd 28 6e 11 3e 4d 22 94 3d 99 36 0e be
       -0.11447071 0.14202178 0.07233105 -0.13888015
000280 07 15 d9 3d 3c 85 74 bd ae f7 3e bd c9 2b c7 bd
       0.10599714 -0.059697375 -0.046622925 -0.09725148
000290 d8 78 95 bd aa 63 76 3d 11 b8 00 3e 1d c5 cf 3d
       -0.0729844 0.06015364 0.12570216 0.10145018
0002a0 c5 1e a1 3d 82 de 82 bd b1 e4 e6 bd 02 e8 65 be
       0.07867197 -0.06390096 -0.11274088 -0.22451785
0002b0 1b 8d 9c 3d da 20 f7 bd 0f 61 ea 3d 4f 98 8f 3d
       0.07644101 -0.12066813 0.11444294 0.070114724
0002c0 7f 4e 67 3e 7e 65 2e 3e 8b f2 67 3d b1 71 cf 3d
       0.22588538 0.17030904 0.05662779 0.10129107
0002d0 1f 90 23 be ce fa b2 3d 3c 14 49 3b d4 9b 82 bc
       -0.15972947 0.087392434 0.0030682227 -0.015943445
0002e0 80 cf ba 3b ab 68 06 3d d6 ba 37 be 82 4a 00 bd
       0.0057010055 0.032814663 -0.17942366 -0.031321056
0002f0 0c 59 2e 3e a4 f7 08 3e c9 82 c0 3d 4c 38 63 3c
       0.17026156 0.13375717 0.09399945 0.013868403
000300 61 d5 06 be d3 65 23 3d 28 58 1f 3e 7e 5a 96 3d
       -0.13167335 0.03989203 0.15560973 0.07341479
000310 ed 4f 8a bd 57 66 3c 3e 29 e6 b7 3d 34 5f 07 bd
       -0.06753526 0.18398415 0.089794464 -0.033049777
000320 c1 5a 11 3d e7 a1 ae 3d 65 03 28 be 11 58 dc 3d
       0.03548694 0.08526974 -0.16407545 0.10758985
000330 03 5c 71 3d aa 6e 08 bd 3d f7 8f bd 53 58 ec bd
       0.05892564 -0.033308662 -0.07029579 -0.11540284
000340 0d 77 91 3c c8 f0 bd bd f1 3b b7 bd d4 d1 a0 be
       0.017756963 -0.09274441 -0.0894698 -0.31410086
000350 52 f8 f6 3d 25 83 12 be 19 0d 5f 3d fb aa 43 3c
       0.12059082 -0.1430784 0.05445585 0.01194262
000360 83 fb ad 3d 76 51 1d 3e 1e 0f b4 bd 2d ef 2c 3d
       0.08495238 0.15363106 -0.08791946 0.042220283
000370 b9 83 74 be 2b 00 59 3d 99 db b0 bd 7a e5 c2 3d
       -0.23878373 0.052978676 -0.08635635 0.095164254
000380 72 ec 98 bc 73 a7 f6 3d 4b b2 ef bc a9 4d 2c 3d
       -0.018667433 0.12043657 -0.029259821 0.04206625
000390 ed da c7 bd e6 02 37 3e a0 1b 36 3e 96 9e 12 bd
       -0.09758554 0.178722 0.17783976 -0.03579577
0003a0 3b 37 1f 3b 4d 1a 3b 3e ce 5c 96 3c ac 55 e2 3d
       0.0024294395 0.18271752 0.0183548 0.11051497
0003b0 c6 c9 db bc 3f 6b 2d 3e d8 bb 1e 3b 54 ef 9b bd
       -0.026829612 0.16935442 0.002422085 -0.076140076
0003c0 7f 94 37 3d 17 c1 13 3d 89 67 04 bd 36 db 8a bd
       0.04481935 0.036072817 -0.0323253 -0.067800924
0003d0 ea e1 f2 bd e7 da f5 bd 5d 50 02 be 5b 5d 63 bc
       -0.11859496 -0.12004643 -0.12725969 -0.013877238
0003e0 57 74 05 bd a5 6a b4 3b 47 cf 94 3d 26 48 de bc
       -0.032581653 0.005505877 0.072660975 -0.027134012
0003f0 d6 69 e3 3d 72 ef 04 3d 90 ad d3 3d 3b 7d b7 bd
       0.11104171 0.032454915 0.10335839 -0.08959433

bias f4 [40]
000000 60 d7 c0 3d c5 3d a8 3d c8 f8 fa 3d 4c 69 df 3d
       0.094160795 0.082149066 0.122544825 0.10908756
000010 38 1e 8f bd 04 5b e8 bd 88 83 2e 3d 1e 19 99 3d
       -0.06988186 -0.11345485 0.042605907 0.07475494
000020 6d 52 2e 3e 7a 93 08 be 8d 6c b3 3d 18 a1 1b 3e
       0.1702363 -0.13337508 0.08760939 0.15198171
000030 e6 8d 9e 3d 3b 9f b6 3d b3 04 0e be 21 c0 21 ba
       0.07741909 0.089170896 -0.1386898 -0.0006170292
000040 f1 d9 79 bd 8d c0 f4 3d fa c4 0c 3e d7 1f 0d be
       -0.06099886 0.11950789 0.13747016 -0.13781677
000050 6c 22 42 3d 73 a8 8a 3d 1f bd 19 be 4d bf 2b be
       0.04739611 0.067704104 -0.1501355 -0.16772194
000060 27 9b de bc a6 ca 42 3d 03 e1 72 3d a8 1c c5 be
       -0.027173592 0.04755654 0.05929662 -0.38498425
000070 c8 b3 d2 bd 80 e1 26 3e cd 26 cd bd 6d 28 61 be
       -0.10288197 0.16296959 -0.10017166 -0.21988077
000080 75 6d 0f be e9 b6 50 bd 22 9e a4 bd c0 4c 29 3e
       -0.14006598 -0.050955687 -0.08037974 0.16533184
000090 88 96 af bd c4 d0 3e be 04 6e f5 3c 8a 6d 3a be
       -0.085736334 -0.18634325 0.029959686 -0.18205848

weight f4 [40, 40]
000000 6d ff 00 3e 4c ba 45 3d d1 6d a8 bd d9 4f 90 3d
       0.12597437 0.04827337 -0.08224071 0.0704648
000010 eb fa 83 3d e8 27 55 3e e2 8e 07 be 39 7c 26 3e
       0.06444343 0.20816004 -0.13238099 0.16258325
000020 22 72 0b 3d b8 f8 ef bd c6 72 07 be fa d9 0f 3d
       0.034044392 -0.11717361 -0.13227376 0.035119988
000030 a8 89 d2 3d 2d 65 34 3e 4b db fb bd a9 e9 aa bd
       0.10280162 0.1761672 -0.12297686 -0.083453484
000040 a0 a5 e8 3d c6 aa 03 3e 5d 7c 1e 3d 36 ff 1b bd
       0.113597155 0.12858114 0.03869282 -0.038085185
000050 c5 7f be 3d 1e 57 27 3e 16 72 10 be 8a 27 92 3d
       0.09301714 0.16341826 -0.1410602 0.07136448
000060 bf 62 0a 3d 35 cb 2b 3e 2f b0 ea 3d cf 96 22 3d
       0.033785578 0.16776736 0.114593856 0.039694604
000070 cd 17 cd 3d 16 02 88 bb 58 a4 a3 bd 03 e5 80 bd
       0.10014305 -0.0041506393 -0.079903305 -0.062936805
000080 9e 6b b4 3d 9b 14 91 3d c6 e0 9d bd 2c 2c 34 3e
       0.08809589 0.07084008 -0.07708888 0.17594975
000090 70 e0 2d 3d 5f 4f af 3a 8f 93 38 3e 55 81 50 be
       0.04245037 0.0013375095 0.18025039 -0.20361836
0000a0 5c 9b f1 bc 23 24 0a 3e 69 5a fd bb ed a6 46 3e
       -0.029493026 0.13490348 -0.007731725 0.19399615
0000b0 0c fd 4c 3e 89 37 9b bd 60 2d c2 bd 00 fe 06 3e
       0.20018405 -0.07578952 -0.09481311 0.13182831
0000c0 3c dc a7 3d ae 10 b1 3d 80 12 54 3d 56 88 f9 bd
       0.08196303 0.086457595 0.051775455 -0.12184207
0000d0 45 e5 9a 3c 86 3b 38 3d 6b 33 99 bd 46 ca 4f bd
       0.018908152 0.04497864 -0.0748051 -0.050730012
0000e0 6a bb bb 3c 9f 22 f1 3d 68 78 8a bd 74 4c 1c be
       0.022916514 0.117741816 -0.06761247 -0.1526354
0000f0 1a 0f f4 3d 27 db 0e bc 7f 7d 90 3d f0 0d c8 3d
       0.11916943 -0.008719242 0.070551865 0.09768283
000100 0f 0f df bd 8f d6 45 3e b5 eb d7 3c 6d fc ac 3c
       -0.10891544 0.19320129 0.026357511 0.02111646
000110 ad fb 2a 3d b3 2c eb 3c 7d f7 41 3d 07 a7 a1 bd
       0.041743923 0.028707838 0.047355164 -0.07893186
000120 e8 77 85 3c 7f e3 d6 3c 9c a2 c9 3c d0 1c 8c 3d
       0.016292527 0.026231525 0.024613671 0.06841433
000130 e6 43 e3 3c 95 de 37 3e dc b4 9c 3d 27 5a ab be
       0.027742337 0.17956002 0.07651684 -0.33467218
000140 e0 fb 01 3d 51 e1 af 3c b7 82 a1 be 51 cf 06 3e
       0.031734347 0.021469744 -0.3154504 0.13165022
000150 d3 7a 65 3d 65 1c 89 3d f3 a9 8f 3d 88 42 9b bd
       0.056025337 0.06694869 0.07014837 -0.07581049
000160 81 bb 03 3d 43 ad 79 bd e9 1c 87 3d 6a bf f8 3b
       0.03216124 -0.06095625 0.06597311 0.0075911777
000170 ed 31 b8 bd 42 60 ee 3c 8a fa 73 bd 14 0f 07 be
       -0.089938976 0.029098634 -0.059565105 -0.13189346
000180 d3 69 f6 3c 72 f7 8d 3d 57 9b 2f be 07 2e 18 bd
       0.030079758 0.06931962 -0.17149101 -0.03715327
000190 86 75 fb 3d 79 82 16 bc b6 69 20 3c c8 e6 b1 3d
       0.12278275 -0.009186381 0.009790828 0.08686596
0001a0 d4 75 38 bd a4 fb 16 be 85 2b 15 be a3 17 50 3e
       -0.045034245 -0.14744431 -0.14567383 0.20321517
0001b0 43 69 09 3e e6 76 35 bd 0d 3e 23 bc e0 15 32 3e
       0.1341906 -0.044302844 -0.0099635245 0.17391157
0001c0 a0 9c 47 3d 4f 52 0c bd 1b 85 0a be fc 7f 0f 3d
       0.048733354 -0.034258183 -0.13527338 0.035034165
0001d0 02 44 0d 3e 0d 8c 7b 3e 4c 2f 42 3d 8d 46 8b 3e
       0.13795474 0.24565144 0.047408387 0.27202263
0001e0 0f 37 83 3d a8 44 28 3d fe 44 70 3d 42 08 46 3e
       0.06406986 0.0410811 0.058659546 0.19339088
0001f0 84 fe 88 3d f9 a0 4a 3d a2 c1 e2 bd 3e bd 98 bd
       0.0668917 0.04946992 -0.11072089 -0.0745797
000200 cb f5 a9 bc 16 5f 3b bd c2 67 4c bd 51 bb 3e 3d
       -0.020747086 -0.045744978 -0.04990364 0.046565358
000210 f0 21 67 3b e6 f8 a0 bd bf 93 4c 3d c9 88 24 bd
       0.003526803 -0.078599736 0.04994559 -0.04016951
000220 1b e5 a7 3d 17 c6 2a 3e 13 ab 02 3c 99 f0 cd 3d
       0.08197995 0.16677128 0.007975358 0.10055656
000230 c0 2e 34 bd a3 d3 53 3e 7c ae f2 3c 90 78 41 bd
       -0.043989897 0.20686202 0.029624216 -0.047234118
000240 ae 17 9a 3c cf 50 5a 3c b3 66 06 3d cd 63 bd bd
       0.01881012 0.01332493 0.032812785 -0.09247551
000250 fe 87 cf 3d 7e 51 49 bc 01 65 82 bc 27 8e d6 3d
       0.1013336 -0.012287496 -0.015917303 0.10476332
000260 53 ea 09 3e 01 01 10 be 88 c6 0c 3e 0e a1 30 3e
       0.13468294 -0.14062883 0.13747609 0.17248937
000270 1a 08 07 be 41 0f 5f 3c d7 e6 27 3e 9b ee 7e be
       -0.13186684 0.013614477 0.16396652 -0.24895708
000280 65 88 d8 bc 80 c7 d3 3b 96 fa 6c 3d ad 13 c5 bd
       -0.026432225 0.0064629912 0.057856165 -0.096228935
000290 d2 ef 93 3d 6d 45 c1 bd 8c 66 de bb 5d d5 49 3e
       0.072234765 -0.0943707 -0.006787127 0.19710298
0002a0 2b fe c6 3d e1 ca a1 bb 23 c4 74 3c 55 2b 8f bd
       0.097164474 -0.004937515 0.014939341 -0.06990687
0002b0 17 ce 45 3e d1 c5 06 3e 7f be 02 bb 69 d6 f3 3c
       0.19316898 0.13161398 -0.001994997 0.029765325
0002c0 2e 60 21 3e cf a4 cc bd 6e dd 04 3e 21 71 0a 3d
       0.15759346 -0.09992372 0.12975094 0.033799294
0002d0 48 de da bd 13 74 ac 3b 37 14 72 bd 14 c9 9b bc
       -0.10686928 0.0052628606 -0.05910131 -0.01901678
0002e0 bb e2 27 bd 04 75 0e 3e 14 4b 63 3e 88 bf 97 bd
       -0.04098771 0.13911825 0.22196609 -0.074095786
0002f0 36 52 08 3e 5d ad 88 bd da 45 08 3d fa e1 4c be
       0.13312611 -0.066736914 0.03326974 -0.20008078
000300 41 9b f0 3d c8 02 67 3d 85 d2 e3 3a 6c e8 af 3d
       0.11748362 0.056399137 0.0017381465 0.08589253
000310 d1 c3 fa 3b 9c fc 39 3e 72 db 33 3e 26 56 85 bf
       0.0076527377 0.18162769 0.1756418 -1.0416915
000320 4c 85 02 3d 88 79 be bc 04 ab bd bd 1e 4d 82 bd
       0.031865403 -0.02325131 -0.09261134 -0.06362365
000330 90 10 19 be b5 08 40 3d a8 55 6e 3d 5e e3 41 3d
       -0.14947724 0.046883304 0.058187157 0.047335975
000340 52 d7 8a 3d c4 fe 08 3d 49 87 82 3d 7c f3 1b 3e
       0.0677935 0.03344609 0.0637346 0.152296
000350 65 4d d4 bc bb 44 36 bd 1e 4d 00 3e 53 a6 a1 3d
       -0.02591581 -0.04449914 0.12529418 0.07893052
000360 dd b4 14 bd 2c 04 ed bd 57 6a 4c 3d f8 ad dd bd
       -0.036305297 -0.11573061 0.0499061 -0.108241975
000370 42 f5 04 3e c2 f9 57 bd c6 68 93 3d f2 4b 84 3d
       0.12984183 -0.052728422 0.07197718 0.06459798
000380 9b a2 88 bd 04 8b 80 bd 80 7f 3b bd c7 21 5e 3d
       -0.066716395 -0.06276515 -0.04577589 0.05423143
000390 99 de 86 3d 5a d6 06 be d1 8e 91 bd 01 62 0e 3e
       0.06585426 -0.13167706 -0.07107318 0.13904573
0003a0 06 59 85 3d 01 26 41 bc 8a 9b cd bd 3f 36 13 bd
       0.065111205 -0.011788846 -0.10039432 -0.035940405
0003b0 72 59 a6 bc ef 89 82 3d 2a 92 2f 3c 57 ca 8e bd
       -0.020306323 0.06373965 0.010716001 -0.06972187
0003c0 d8 62 95 bd 2e a4 bf bb 62 cc ab 3d 66 fb c8 3d
       -0.072942436 -0.005848429 0.08388592 0.098135754
0003d0 bd 19 94 3d ef b6 43 3c 73 a5 06 be d7 20 c9 bd
       0.07231472 0.01194547 -0.13149051 -0.09820717
0003e0 89 a5 79 bd 33 f4 0f be 19 b8 33 3d da 12 28 3d
       -0.060948882 -0.14057998 0.04387674 0.041033603
0003f0 b5 24 d6 bd eb 3e 84 3d ef 91 80 bd 92 b0 df bd
       -0.1045622 0.06457313 -0.062778346 -0.1092235

bias f4 [40]
000000 06 af 23 3e af 2f 66 3d de e7 19 be 2c 64 1e 3e
       0.15984735 0.05619782 -0.15029857 0.154679
000010 64 e8 20 3d 97 57 1d 3c 8b 35 86 be 6f c3 9a bd
       0.039284125 0.009603403 -0.26212725 -0.07556807
000020 0d 7a 12 bc 41 44 9a 3d 1f a7 a0 3d e9 47 ec bd
       -0.008940232 0.0753255 0.07844376 -0.11537153
000030 a0 e1 04 be 80 7c d5 3d 01 eb 23 be 7b 8d ca 3c
       -0.12976694 0.10424137 -0.16007616 0.024725666
000040 03 b4 2e bd 70 44 17 3d 0c 1f fc bb 11 96 1e 3e
       -0.04265214 0.0369305 -0.0076941308 0.15486933
000050 bd 67 e2 3d d5 5e fb bd 73 39 10 be 44 da b0 be
       0.11054943 -0.12273947 -0.14084415 -0.34541523
000060 f1 09 f4 3d a4 e0 06 bb aa 3a 6c bd a9 31 50 bd
       0.11915959 -0.0020580674 -0.057673134 -0.05082861
000070 46 93 08 be e5 77 ef bd e3 57 df 3c 0a 2e 80 bc
       -0.1333743 -0.1169279 0.027263587 -0.015646953
000080 08 b9 c7 3c 7c c3 e6 3b 56 5f 5c 3d 18 74 44 bd
       0.024380222 0.0070423465 0.053801857 -0.047962278
000090 73 9d f6 bd 31 2d 8a 3c da bf db bc 6f 0d ab 3d
       -0.1204175 0.016867252 -0.02682488 0.08352172

weight f4 [40, 40]
000000 75 a0 45 3e b2 e1 42 3d 33 7d 69 bd 5a ab 08 3e
       0.19299491 0.04757852 -0.057004165 0.13346615
000010 7e 75 14 3e 56 7d 39 3d fd 16 b2 3d 9f 9f 95 3d
       0.14497945 0.045285545 0.08695791 0.07305836
000020 75 70 d4 bc 3e a7 0f be 7e c4 96 be c7 a6 7c 3c
       -0.02593253 -0.14028642 -0.29446787 0.015420622
000030 19 46 06 3e 7d a8 82 3d 40 7c 1f be 73 19 63 3e
       0.13112678 0.06379793 -0.15574741 0.22177677
000040 1b bd ed 3d 4b b4 95 3d 14 73 31 3c 80 56 ea 3d
       0.11608335 0.07309779 0.010830659 0.1144228
000050 52 43 1a be 5f e7 6f 3c 9f 00 fb 3d 6f 73 f5 3d
       -0.15064743 0.0146425655 0.12255978 0.11984908
000060 7c 22 af 3d 87 3d 01 bd 1e b2 c0 bd 6c 40 7d bd
       0.08551499 -0.031552818 -0.09408973 -0.061829016
000070 ad 61 ed bd a1 e9 48 bd ef 96 98 bd 12 1f d3 3c
       -0.11590896 -0.04905093 -0.07450663 0.025771651
000080 2f 57 ec bc 3d 8a 0a 3e 77 38 2f 3d 2f c9 08 be
       -0.028850166 0.13529296 0.04277846 -0.13357995
000090 a5 4d de 3d 8a 26 c1 3e e0 95 66 3e 28 5d 22 3e
       0.10854653 0.37724715 0.2251811 0.15855849
0000a0 d3 64 09 be a3 3b 01 be dd 56 44 3d c0 32 bc bd
       -0.13417368 -0.12620406 0.0479344 -0.09189367
0000b0 5c 2b 87 3d a3 b0 03 be d6 ce 1a bd c5 c0 04 3d
       0.06600067 -0.1286035 -0.03779491 0.0324104
0000c0 2b 55 b2 bb 08 11 1c 3e ef c4 d1 3c 99 58 85 bd
       -0.0054422817 0.15240872 0.0256066 -0.06511039
0000d0 3e a6 0f 3e fa f8 b2 3c 1d 15 8e bd ee df 4a 3d
       0.1402826 0.021847237 -0.06937621 0.049529962
0000e0 43 04 de 3d 68 eb 44 bd b6 69 20 3e c4 be 8e 3d
       0.108406566 -0.048076063 0.15665326 0.069699794
0000f0 d3 9e f6 3d 51 10 3e 3d e4 13 fb bd b8 ca d2 3d
       0.12042012 0.04640228 -0.12259653 0.10292572
000100 1d 8f 29 3d 5f c6 a7 bb d2 6d a5 bc 8f 24 3d bd
       0.04139625 -0.005120083 -0.020193968 -0.046177443
000110 6c 40 ac 3d 58 d9 b6 3c b0 e8 02 3e f6 77 40 3d
       0.08410725 0.022320434 0.12784076 0.046989404
000120 8e dc ec 3c e5 14 58 bd 9a 24 00 be 2d 76 df bd
       0.028913762 -0.0527543 -0.12513962 -0.10911212
000130 8a 73 17 be 42 a1 b6 bd 22 1d 0a 3e 11 2e 8c 3d
       -0.14790168 -0.08917476 0.13487676 0.06844724
000140 da 0a 26 be f0 2f fc bd 23 b9 19 be 2d f7 bb 3d
       -0.16215077 -0.12313831 -0.1501203 0.091780044
000150 ae e5 5e 3d 19 00 44 3c a0 da 50 bd c6 1a 93 bb
       0.05441826 0.011962914 -0.050989747 -0.0044892756
000160 db 0f 09 3e 0c 41 0d 3d 6a af 9d 3d 76 f1 d5 3c
       0.13384955 0.03448586 0.07699473 0.026116114
000170 28 00 51 bd 03 b9 35 bd e7 f1 b4 bd 28 ad 74 3d
       -0.05102554 -0.044365894 -0.08835202 0.059735447
000180 56 31 c9 bd cf 51 8d bd a3 35 97 bd 53 d5 73 3d
       -0.09823863 -0.069003694 -0.07383277 0.059529614
000190 58 ac 6e bc cf 7f 02 3e 13 85 d5 3d d9 58 f0 3d
       -0.014567457 0.12744068 0.104257725 0.11735696
0001a0 ac 74 94 bd 5b d1 ff bd 64 cc cc 3c 93 50 85 3d
       -0.07248816 -0.12491103 0.024999805 0.06509509
0001b0 f6 20 b5 bd 61 1b 09 be a9 70 16 3d 3d d5 ec 3d
       -0.088441774 -0.1338935 0.036728535 0.115641095
0001c0 0f 40 c0 3c c2 25 16 3d f6 91 9d bd e5 68 28 be
       0.023468046 0.036657102 -0.076938555 -0.16446264
0001d0 4f 0d de bd 2b 2d 09 be e2 6c 22 be 9d 80 e6 bd
       -0.10842382 -0.13396136 -0.15861848 -0.11255
0001e0 4f cb 04 be c8 fc 10 bd 6c d0 7e 3d 73 ae 3a 3c
       -0.12968181 -0.03539732 0.062210485 0.011394131
0001f0 63 e1 b1 3d 76 c3 a0 3d 8c 2c 4e 3c 48 58 ad 3d
       0.08685567 0.07849781 0.012583863 0.08464104
000200 ae da a2 3d 77 d6 26 be e6 37 d4 3d 72 9d 98 3d
       0.07951866 -0.1629275 0.10362224 0.07451905
000210 0c fc 33 3c 8a db cb bd 03 14 9a bd a7 14 90 3c
       0.010985386 -0.09953983 -0.07523348 0.017587973
000220 74 22 c8 bd f9 45 dd bd c4 c3 2f be ab e1 14 3d
       -0.097721964 -0.10804362 -0.17164522 0.036348026
000230 7b 8b b5 3c 33 84 dd 3d 63 c1 d0 3b b3 02 d1 3d
       0.022161236 0.108162306 0.0063707097 0.10205593
000240 0c 48 8e 3d 96 7f 27 be 68 09 a1 3d 14 02 9e bd
       0.069473356 -0.16357264 0.07863122 -0.0771524
000250 eb f5 ce 3d b6 ba 75 bd 95 8c 02 bd 83 e1 19 3e
       0.10105499 -0.059992515 -0.03187235 0.15027432
000260 98 89 0a be 30 d1 6f 3d 39 bb ff 3d 09 2d 01 be
       -0.1352905 0.058549106 0.12486882 -0.12614836
000270 62 96 00 3d 0a 8b 40 bd 74 67 87 3d d7 dc df bd
       0.031393416 -0.047007598 0.06611529 -0.10930794
000280 1f 40 fc 3d ef cc ee 3d ab cf cd 3d 4b 45 39 3e
       0.12316918 0.11660182 0.10049375 0.1809284
000290 10 ac e4 bd 19 7e 1d 3e d7 5d 43 3e 83 1c 16 3e
       -0.11165631 0.15380134 0.19078766 0.14659314
0002a0 3c c6 7e bd 86 b9 f6 3d aa d9 3e bd c1 9f 21 3e
       -0.06220077 0.120471045 -0.0465943 0.15783598
0002b0 09 a8 24 3d 47 d5 09 be a0 57 8a 3c 5a 05 e9 3d
       0.040199313 -0.13460265 0.016887486 0.11377974
0002c0 b2 ed 10 3e 83 c4 a3 bd ff fc ce bc 4d d7 d5 3d
       0.14153174 -0.07996466 -0.025267122 0.10441456
0002d0 5d c3 5a bd bb 65 33 3e f7 c9 dd 3d a9 76 28 3e
       -0.05340897 0.17519276 0.10829537 0.16451515
0002e0 d7 5e d0 bd ff bd 4d 3d bd 4e f6 bd 2b 98 b3 bd
       -0.10174339 0.050230023 -0.12026737 -0.08769258
0002f0 a8 7a cb bd df 68 28 3e f3 53 20 3d 43 a6 1c bd
       -0.09935504 0.16446255 0.03914256 -0.038244497
000300 be f9 9d bd 05 44 0a be d8 91 ee 3d 34 b5 47 3c
       -0.0771365 -0.1350251 0.11648911 0.012189198
000310 59 63 1a be b5 f9 65 3e bb ed b0 3e 18 8f 66 3a
       -0.1507696 0.22458537 0.34556374 0.00087951263
000320 25 88 34 3e 1c 62 5b 3e 0a 75 29 3e 2b 72 90 bd
       0.1763006 0.21424145 0.16548553 -0.07053026
000330 36 4f 9a bd 4e 94 d0 3d 2a a1 ac bc 4a 71 f7 bd
       -0.075346395 0.10184537 -0.021072943 -0.12082155
000340 11 38 b0 bc 50 c7 3e bd 31 4d 80 be 22 84 b4 3d
       -0.02151111 -0.046576798 -0.25058892 0.08814265
000350 6e 2e c0 bd e8 e7 c6 3b 88 52 4f bc 51 60 a2 3c
       -0.09383856 0.006070126 -0.012653954 0.019821318
000360 9a 56 46 3d 3a c7 50 3e da 9b 07 3e 74 5b f6 bc
       0.048422433 0.20388499 0.13243046 -0.030072905
000370 05 25 68 3d de 9b 11 3d 37 4d 47 bd da 81 0a bd
       0.05667593 0.035549037 -0.048657622 -0.033815242
000380 a2 cc ab bd ea a6 2b bd f5 12 bc bd c9 6b b3 3d
       -0.0838864 -0.04190723 -0.09183303 0.08760793
000390 41 76 52 3d 71 4e 23 be f5 00 99 bc 2e 3f 3e bd
       0.051382307 -0.15947892 -0.018677214 -0.04644697
0003a0 59 9e 4f 3c cf 5b 72 bd d1 df 64 3d 62 d4 a4 bd
       0.01267203 -0.059169587 0.05587751 -0.08048321
0003b0 dd 84 de bd c0 8a 43 3e 74 85 89 3e fb 4b 2c 3d
       -0.108651854 0.19095898 0.2685963 0.042064648
0003c0 53 15 2a 3d d9 b2 cc bd 99 ad 09 3e 2c 5c 97 3d
       0.041524243 -0.0999505 0.13445129 0.07390627
0003d0 c1 36 e8 3d 37 c7 d0 3d 74 65 da bd 46 e3 28 3d
       0.113385685 0.10194247 -0.10663882 0.04123237
0003e0 29 c5 cd 3d cb ef 02 3e 06 56 f0 3a 23 90 19 be
       0.10047371 0.12786786 0.0018336184 -0.1499639
0003f0 9c 49 e4 3d 02 22 0e 3e 47 5e a3 3d c7 43 b1 bd
       0.111468524 0.1388016 0.07976966 -0.086555056

bias f4 [40]
000000 d5 38 10 3e cb d0 73 be b7 7f e3 3d 1c 79 21 3d
       0.1408418 -0.23810117 0.11108344 0.03942214
000010 0a f4 b3 3c 06 2e 33 3e 6c 5d 28 be c4 de 92 bb
       0.021966953 0.17498025 -0.16441888 -0.004482122
000020 20 47 b3 3d 3f c7 43 be 05 3a 22 3d 2f d0 cb 3b
       0.087538004 -0.19118975 0.039606113 0.006219886
000030 20 0f 0e 3e d9 45 c8 bc e4 34 fa bd 19 de 00 3e
       0.13872957 -0.024447368 -0.12217119 0.12584724
000040 c9 7b c1 3d 34 9d 2f bd 90 3f a0 3d 68 aa de 3d
       0.09447438 -0.04287453 0.078246236 0.10872346
000050 c6 9a 7a bd 36 64 00 be 6d 15 24 3e 70 95 62 be
       -0.06118276 -0.12538227 0.16023798 -0.22127318
000060 7e 9b e4 3d d2 f1 0b be 50 43 48 bc b3 ec a6 3d
       0.1116247 -0.13666466 -0.01222308 0.081506155
000070 ac e6 81 3e a4 21 05 3e fe 26 60 bd 5e 80 c4 bc
       0.253713 0.13001114 -0.054724686 -0.023986991
000080 46 84 da 3c b5 59 46 bd e4 80 fb bd fc 20 c1 3d
       0.026674401 -0.048425395 -0.12280443 0.094301194
000090 5d fb 2c 3d 54 1e b7 3d e1 e2 a0 bd 1f a3 14 be
       0.042231906 0.089413315 -0.07855774 -0.14515351

weight f4 [4, 40]
000000 42 94 ec bc 04 bd fe bd 5f e4 da 3c d3 b2 6d 3d
       -0.028879289 -0.124383956 0.026720224 0.05803187
000010 50 c4 dc bc a9 3f 3b 3c 8d 84 72 bc 9f b7 46 3d
       -0.026949078 0.011428752 -0.01480211 0.04851496
000020 c0 95 aa 3d 07 25 88 3d 64 c5 ee 3e d1 60 e3 3b
       0.08329344 0.066476874 0.46634972 0.0069390316
000030 a5 14 53 3e 90 b1 86 bd 9f 24 a7 3b 2f f1 ca bd
       0.20613344 -0.06576836 0.005100801 -0.09909283
000040 78 ad 19 3d c9 8f e0 bd 84 bb 14 3e 0c 1e d8 3d
       0.03751895 -0.10964925 0.14524657 0.10552606
000050 8f cf 84 bd 0f 33 1e 3e 68 4b 1f 3e 4a 22 60 3d
       -0.06484901 0.15449165 0.15556109 0.0547202
000060 fd da 47 3e 43 c6 e7 bd 48 33 9b bd c3 3b f6 bd
       0.19517131 -0.11317112 -0.075781405 -0.120231174
000070 03 4e 3a 3e ef 3c dc bc ae 34 79 bd f4 00 11 be
       0.18193822 -0.026884524 -0.060841255 -0.1416052
000080 46 f7 a7 3d 64 5b 86 3e 07 45 91 3d e2 e6 36 bd
       0.082014605 0.262416 0.07093244 -0.04465378
000090 58 f2 1f bd 94 0c 16 3e 70 56 08 3e 1a fd 2f 3d
       -0.039049476 0.14653236 0.13314223 0.042965986
0000a0 ea a2 9b 3c 75 0b 34 bc 5f 33 4e 3d d7 6c dd bd
       0.018998582 -0.01098906 0.05034196 -0.10811775
0000b0 a9 45 1a 3e 66 6d a7 bd 03 6b da 3b 6b 42 ad bd
       0.15065636 -0.08175163 0.006665589 -0.08459934
0000c0 01 f3 00 3c 55 56 9c bc 2c f3 01 3e ec 71 8d bd
       0.007870437 -0.019084135 0.12690419 -0.069064945
0000d0 45 aa 1f 3d 33 22 d7 3d 48 e5 2d 3c 05 b5 c5 3a
       0.03898074 0.1050457 0.010613747 0.0015083855
0000e0 4c 16 bb 3e b9 87 c9 3d 72 b4 7c 3e d8 ff 36 3e
       0.3654045 0.0984034 0.2467821 0.17871034
0000f0 fd b5 14 be fb 4e c5 bc 7d 00 ec bd b9 75 45 be
       -0.14522548 -0.024085512 -0.11523531 -0.19283189
000100 9d 5f bf 3d 49 55 22 bd 0f d8 c8 3d 06 c0 e3 3d
       0.09344409 -0.039632116 0.09806835 0.1112061
000110 ae c7 87 3d a3 01 31 3d 2c 71 d7 bd 56 f2 b4 3d
       0.06629883 0.04321445 -0.10519633 0.088352844
000120 d0 30 07 be 50 b1 53 3e 80 16 02 be 5d 36 2b 3c
       -0.13202214 0.20673108 -0.12703896 0.010449973
000130 e9 ca 02 3e fd 9d db bd 4d f1 db 3b 2f bd 6e 3c
       0.12772717 -0.10723493 0.006712115 0.014571472
000140 a0 6f da bc 6a c5 57 be 1c 19 a1 3c 0f 5a 99 3d
       -0.026664555 -0.21071401 0.019665293 0.074878804
000150 60 03 14 be 0b de a4 bc d3 41 d2 3c 89 59 0b be
       -0.14454412 -0.02012541 0.025666153 -0.13608374
000160 47 aa d4 3c d4 30 43 be 64 be 42 3c 93 65 d3 bd
       0.0259601 -0.19061595 0.011886213 -0.10322108
000170 3f 09 c5 bc 28 f4 61 be be 6e 98 3d 37 c8 58 bd
       -0.02405226 -0.22065794 0.074429974 -0.052925315
000180 ca 6e 82 3e 48 1f 35 3d b3 3c 3c 3e 60 7d 09 be
       0.2547515 0.044219285 0.1838253 -0.13426733
000190 37 d2 5a 3e b5 40 be bd 30 cc 73 bc 71 8f 74 be
       0.21369253 -0.09289686 -0.014880225 -0.23882844
0001a0 d1 8a 02 be 45 46 95 bd 50 86 00 3e de 75 02 3e
       -0.12748267 -0.072887935 0.12551236 0.12740275
0001b0 25 f4 0a 3e a6 12 4b be 0a 05 bc bb 42 82 89 bd
       0.13569696 -0.19831333 -0.0057379054 -0.06714298
0001c0 7f 7d b7 bd 07 16 c5 bd 26 7c 49 bc 03 4a 88 bd
       -0.08959483 -0.09623342 -0.012297666 -0.066547416
0001d0 fe 2e c3 3d fb b0 e0 3d 51 0c 14 be 8a 41 2b 3e
       0.095304474 0.10971256 -0.14457823 0.1672422
0001e0 51 63 e2 bd 6b 40 4f bd 39 25 95 3c c8 1e af 3d
       -0.11054099 -0.050598543 0.018206226 0.08550793
0001f0 a4 74 e9 bd e6 41 0d be 2e 95 70 bd 2f 04 06 3c
       -0.113992006 -0.1379467 -0.05873602 0.008179708
000200 76 49 e0 3d ed 3c 57 3e 67 2e 88 bc e3 ae a8 bd
       0.109515116 0.21019335 -0.016623689 -0.08236482
000210 3b 03 37 be eb 20 95 bd 48 12 41 3d 68 ef c5 bd
       -0.17872326 -0.07281669 0.047136575 -0.09664804
000220 d9 11 a0 3d fa 7b 04 3e 29 ae b6 3d 7d e6 b9 bb
       0.07815904 0.12937918 0.08919937 -0.0056732283
000230 9a fe 6d be 8f a4 2e 3d c9 b4 36 be 9c 07 7a 3d
       -0.23241654 0.042637404 -0.17842402 0.061042413
000240 84 2b 31 be f8 ea 19 3e 30 9b 92 bd 00 44 bf 3c
       -0.17301756 0.1503104 -0.07158506 0.023347855
000250 ce d1 6e be 7a 46 1c be 5a bf 90 3d bc a1 8e bd
       -0.23322222 -0.1526126 0.070677474 -0.06964442
000260 8c 4e 23 be 1f a2 89 bd 23 cf 1a be 34 da 44 be
       -0.15947932 -0.06720375 -0.15118079 -0.19223863
000270 36 f4 c5 bd 58 8d 13 3d 1a 91 9e bd 16 cf bb 3d
       -0.0966572 0.036023468 -0.0774252 0.09170358

bias f4 [4]
000000 f8 72 1e bd a3 42 be 3d 20 3a ab 3a 29 f7 6b bc
       -0.03868386 0.09290054 0.0013063587 -0.014402189
