models/cartw10_step1.pth (torch, 6279 bytes, 10 tensors)

weight f4 [10, 4]
0	0xbe3ffb48	-0.187482
1	0xbe1264a4	-0.14296204
2	0x3d1e8fd0	0.03871137
3	0x3e852b8c	0.26009786
4	0x3e6dfcae	0.23240921
5	0x3e5f2970	0.21793151
6	0xbe1ea74d	-0.15493508
7	0x3e2c618c	0.16834086
8	0x3ef02442	0.46902663
9	0x3f2b1cdd	0.66840917
10	0xbd0e1e05	-0.034696598
11	0xbf0db6fb	-0.5535733
12	0xbe740740	-0.2383089
13	0xbed1ac9e	-0.4095201
14	0x3e62769c	0.22115558
15	0x3e9251a2	0.28577906
16	0x3e0531e2	0.1300731
17	0x3edccddd	0.4312581
18	0xbe4f93ef	-0.20271276
19	0xbec517a4	-0.384946
20	0x3e433367	0.19062577
21	0x3f15d6e3	0.58531016
22	0x3dc55e51	0.0963713
23	0xbe830fb3	-0.25597915
24	0xbd6926e5	-0.05692186
25	0x3f234305	0.6377414
26	0x3d734514	0.05939205
27	0xbe4e511f	-0.20148133
28	0x3ee300a4	0.44336426
29	0xbee68e0e	-0.45030254
30	0x3ea41ed3	0.32054767
31	0xbebd29af	-0.36945865
32	0xbe982dec	-0.29722536
33	0xbd4dc0b0	-0.05023259
34	0x3deb8334	0.114996344
35	0xbf062a64	-0.5240843
36	0x3de1fbe8	0.110343754
37	0xbef8202c	-0.48462045
38	0x3d0c6be0	0.034282565
39	0xbd6ba370	-0.057528913

bias f4 [10]
0	0xbe4daf08	-0.200863
1	0xbe37f974	-0.17966253
2	0x3ec112e5	0.37709728
3	0xbedefe52	-0.43553406
4	0xbe38fac1	-0.18064405
5	0x3efd5238	0.4947679
6	0x3e4c8f15	0.19976456
7	0xbe2db64e	-0.16964075
8	0x3e985c3c	0.2975787
9	0xbe8e99a6	-0.278516

weight f4 [10, 10]
0	0xbe9358dc	-0.28778732
1	0x3d972d11	0.073816426
2	0x3ed73fa9	0.42040756
3	0x3e0f3aed	0.13987322
4	0x3ebfeaca	0.37483817
5	0x3e30e088	0.17273152
6	0x3e99bb62	0.30025774
7	0xbf5de5b3	-0.8667862
8	0x3de79064	0.11306837
9	0x3df17c50	0.11791289
10	0x3e663f88	0.22485173
11	0x3e14aec1	0.14519788
12	0x3e2a5f9f	0.16638039
13	0xbe0d33f0	-0.13789344
14	0x3e87f552	0.26554352
15	0x3e9b3780	0.3031578
16	0x3ebc6121	0.36792853
17	0xbf4ac76e	-0.79210556
18	0x3dfbcafa	0.12294574
19	0x3da25777	0.07926839
20	0xbe1cfeb8	-0.15331542
21	0xbd082424	-0.03323759
22	0x3d86b71e	0.065778956
23	0xbe2d734a	-0.1693851
24	0x3e79e100	0.24402237
25	0xbe364d85	-0.17803009
26	0x3e8ff8b8	0.28119445
27	0xbe83f574	-0.25773203
28	0x3db33ece	0.087522134
29	0xbe9e14d4	-0.30875266
30	0xbe6b0f17	-0.22954975
31	0x3e3098db	0.1724581
32	0x3df19429	0.117958374
33	0x3e98fd78	0.2988088
34	0x3e997305	0.29970565
35	0x3e7abb87	0.24485599
36	0x3e75c395	0.2400039
37	0xbead75de	-0.33878988
38	0x3e3e1a49	0.18564714
39	0x3e4a15c6	0.19734868
40	0x3d3450fe	0.044022553
41	0x3e9dd108	0.3082354
42	0xbe355176	-0.17706856
43	0x3e83f51a	0.25772935
44	0xbe713dac	-0.23558682
45	0xbe7d35c0	-0.24727535
46	0xbe3f32bb	-0.18671696
47	0xbd7254ee	-0.059163027
48	0x3e8562a1	0.2605181
49	0xbe69250e	-0.22768041
50	0xbe884bc3	-0.26620302
51	0x3e39d0f7	0.1814612
52	0x3cd69c5c	0.026197605
53	0x3e9cae08	0.30601525
54	0x3ebca018	0.36840892
55	0xbe11a43f	-0.14222811
56	0x3dd31c1b	0.10308095
57	0xbe9d7836	-0.30755776
58	0x3b87fbb3	0.004149878
59	0x3d1b8e35	0.037977416
60	0xbdedc482	-0.116097465
61	0x3e367da4	0.17821366
62	0x3e1a7dba	0.15087023
63	0x3e2b81ba	0.16748706
64	0x3c987a90	0.01861313
65	0xbeb015e1	-0.34391692
66	0x3e52374c	0.20528907
67	0x3e856ae7	0.26058123
68	0x3e00aff9	0.12567128
69	0x3e240b19	0.16019858
70	0x3e9f57db	0.31121716
71	0x3e310924	0.17288643
72	0xbe925f40	-0.28588295
73	0x3d35c8d4	0.044380978
74	0xbdecabff	-0.11556243
75	0x3e99ace1	0.3001471
76	0xbe2e9d46	-0.17052183
77	0xbe347cb6	-0.17625698
78	0xbe149d83	-0.14513211
79	0xbe0a065a	-0.13478985
80	0x3e85e6b7	0.26152584
81	0x3ecd4c85	0.40097442
82	0x3d92aeeb	0.07162269
83	0x3d42733b	0.047473174
84	0x3e983361	0.297267
85	0x3e7bae03	0.24578099
86	0x3e4f8f48	0.20269501
87	0xbf3767b2	-0.716426
88	0xbe26e903	-0.16299824
89	0x3e923556	0.28556317
90	0x3e2c48bb	0.1682462
91	0x3ea5469a	0.32280427
92	0x3e43ea5f	0.19132374
93	0x3e7cb173	0.24677067
94	0x3ecc9c33	0.3996292
95	0x3e3d86a1	0.18508388
96	0x3d3d9608	0.04628566
97	0xbf5a0d18	-0.8517623
98	0xbd9806c4	-0.074231654
99	0xbe178c58	-0.1479963

bias f4 [10]
0	0x3e1b3749	0.15157808
1	0xbeb213ab	-0.3478063
2	0xbe74c8d5	-0.23904736
3	0x3e191711	0.14950205
4	0xbe64f83f	-0.22360323
5	0xbe580f9c	-0.21099705
6	0xbecddf38	-0.40209365
7	0xbca73603	-0.020411497
8	0x3d9f384b	0.07774409
9	0xbee16096	-0.44019002

weight f4 [10, 10]
0	0xbe201f5a	-0.1563696
1	0xbddee770	-0.10883987
2	0xbe543546	-0.20723447
3	0x3d5771e1	0.052598838
4	0xbe84a401	-0.25906375
5	0x3e7ff92c	0.24997395
6	0xbe93ea0b	-0.28889498
7	0xbc107a28	-0.008818187
8	0x3e8f081d	0.27935877
9	0xbd36c90d	-0.04462533
10	0x3ed5499e	0.41657728
11	0x3e677f24	0.22607094
12	0xbd6930ee	-0.05693143
13	0x3e0b9f65	0.13635023
14	0xbd110686	-0.03540661
15	0x3e31c8f2	0.17361811
16	0x3dfe8fa6	0.124297425
17	0x3e931d6f	0.28733394
18	0x3eb49b1b	0.35274586
19	0x3e9a434a	0.30129462
20	0x3e69bf74	0.2282694
21	0x3e217ef9	0.15771092
22	0x3ec8c174	0.39210093
23	0x3ed679b0	0.41889715
24	0x3dfbbfe4	0.122924596
25	0x3eee0183	0.46485528
26	0xbe6a0da2	-0.22856763
27	0x3c7e08b7	0.0155050075
28	0xbb8f0fb0	-0.004365884
29	0x3baa3afb	0.0051950193
30	0x3e0972bf	0.13422678
31	0x3eb95b67	0.36202547
32	0xbd5b6722	-0.053565152
33	0xbe0f30b3	-0.13983421
34	0x3e7dc987	0.24783908
35	0x3e1269d6	0.14298186
36	0x3e9b0562	0.30277544
37	0xbde1d4c8	-0.11026913
38	0x3d9086b9	0.07056946
39	0x3e83e340	0.25759315
40	0x3ed3a5ee	0.41337532
41	0x3de3f309	0.1113034
42	0x3e7a93ad	0.24470396
43	0xbded4903	-0.115861915
44	0x3e485f49	0.19567598
45	0x3f065203	0.5246889
46	0xbe09e919	-0.13467826
47	0x3e066550	0.13124585
48	0x3e34dd43	0.1766253
49	0x3df07cdc	0.11742565
50	0xbe724a81	-0.23661233
51	0xbe0766d0	-0.13222814
52	0xbdc84c4b	-0.09780177
53	0x3d245886	0.040123485
54	0x3e50eff8	0.20404041
55	0xbd0b7122	-0.03404344
56	0xbea0aa6b	-0.3138002
57	0x3e5df084	0.2167378
58	0x3cebad69	0.028769212
59	0xbe4fd0ce	-0.20294496
60	0xbe6e9894	-0.23300391
61	0xbdbcaada	-0.09212275
62	0xbe8c3d67	-0.27390596
63	0xbe1fcb48	-0.1560489
64	0x3e064e66	0.13115844
65	0x3da19e97	0.07891577
66	0xbd881f09	-0.066465445
67	0x3e834a99	0.2564285
68	0xbe37e157	-0.17957054
69	0x3dcbed7d	0.09957407
70	0xbe8e2de6	-0.27769393
71	0x3ea08136	0.3134858
72	0x3d8a9850	0.067673326
73	0xbe4017fa	-0.18759146
74	0x3e9ecad2	0.31014115
75	0x3ea75e8b	0.32689318
76	0x3dfbf6f4	0.12302962
77	0xbe986e8e	-0.29771847
78	0x3d482723	0.04886545
79	0x3ea1c63f	0.31596562
80	0xb9e98af1	-0.00044544743
81	0x3bbb6eec	0.00572001
82	0xbd934aaf	-0.07191979
83	0xbd88ded2	-0.066831246
84	0xbd9af717	-0.0756666
85	0xbdaacb31	-0.08339537
86	0x3e955127	0.29163477
87	0x3bc48ba2	0.005998091
88	0xbdee25a0	-0.1162827
89	0xbe5cc232	-0.21558455
90	0xbde1f23f	-0.11032533
91	0x3ea11cf1	0.31467393
92	0x3ea6592a	0.32489902
93	0x3ea032c8	0.31288743
94	0xbe6a3496	-0.22871622
95	0x3d9309ab	0.071795784
96	0xbe4da13c	-0.20081037
97	0xbde00373	-0.10938158
98	0xbe857d8c	-0.26072347
99	0x3e2be289	0.16785635

bias f4 [10]
0	0xbc8c444c	-0.01712241
1	0x3defe4d2	0.11713566
2	0x3e10eb89	0.1415235
3	0xbdb0c840	-0.08631945
4	0xbc965b03	-0.018353945
5	0xbe8d56bc	-0.27605236
6	0xbe57ee7e	-0.21087071
7	0x3c60c07f	0.01371777
8	0x3d46c02a	0.048523106
9	0xbeaf1d32	-0.34201962

weight f4 [10, 10]
0	0xbd8aeabd	-0.06783054
1	0x3e512df0	0.2042768
2	0xbdab2778	-0.083571374
3	0xbdefd2ec	-0.11710152
4	0xbe2c6d17	-0.1683849
5	0x3e65420e	0.22388479
6	0x3e76a37f	0.24085806
7	0xbe848998	-0.25886226
8	0x3e80bb8f	0.25143096
9	0xbe26f9f3	-0.16306286
10	0x3ddc67d9	0.10761995
11	0xbc9d4f9b	-0.019202998
12	0xbe3d3679	-0.18477811
13	0xbea0056a	-0.3125413
14	0xbe3bc454	-0.18336612
15	0x3e8b6166	0.27222747
16	0x3e2546fa	0.16140357
17	0x3d2e4a3c	0.042551264
18	0xbea04737	-0.31304333
19	0x3d8df323	0.0693114
20	0xbc5b4c3b	-0.013384874
21	0xbcb143ed	-0.021638835
22	0xbe5a03de	-0.21290538
23	0x3e3a7a5d	0.1821074
24	0x3db763be	0.08954571
25	0x3ddfe8f7	0.109331064
26	0x3d370cce	0.044689946
27	0xbe8f93d4	-0.2804247
28	0xbe72b7fb	-0.23702995
29	0xbda76e2c	-0.081753105
30	0xbd5b705c	-0.05357395
31	0x3e89f0d9	0.26941565
32	0x3edbe0cb	0.4294494
33	0xbcd7db61	-0.026349725
34	0x3e5c65cf	0.21523212
35	0xbe529b16	-0.20566973
36	0x3d94127b	0.07230087
37	0xbeb298dd	-0.3488225
38	0xbe741993	-0.23837881
39	0x3e492fa3	0.19647078
40	0xbd374744	-0.0447457
41	0xbe7c5f4f	-0.24645732
42	0xbdf42b57	-0.11922329
43	0xbe57b231	-0.21064068
44	0xbe4336b3	-0.19063835
45	0x3c3c9bde	0.011511771
46	0x3e45f852	0.19333008
47	0xbe8b88be	-0.27252764
48	0x3e8dbffa	0.2768553
49	0xbde29127	-0.11062842
50	0xbdf5a540	-0.119944096
51	0xbe2f6914	-0.17129928
52	0xbdd52c6a	-0.10408862
53	0x3e22b780	0.15890312
54	0xbea5616a	-0.32300884
55	0x3d1e3a17	0.038629618
56	0xbe8c81fe	-0.27442926
57	0x3db5656e	0.08857237
58	0x3d2c4764	0.04206027
59	0xbe9f82a6	-0.31154364
60	0x3cfe60dd	0.031052047
61	0x3e854693	0.26030406
62	0x3e1fa9ee	0.15592167
63	0x3efeda15	0.49775758
64	0x3f05c9c8	0.5226102
65	0x3d3f1393	0.046649527
66	0x3dd9d437	0.1063618
67	0x3ec3a6b0	0.3821311
68	0xbdd97337	-0.106176786
69	0x3ebf3e17	0.37352058
70	0xbe6d9b64	-0.23203808
71	0x3ec4df14	0.38451445
72	0xbe11dbd3	-0.14244013
73	0x3eb8cec6	0.36095256
74	0x3e856c2a	0.26059085
75	0x3e45a9e8	0.19303095
76	0x3c2bca45	0.0104852365
77	0x3e9a20f5	0.3010327
78	0xbe0e0ac6	-0.13871297
79	0x3e862c9e	0.26205915
80	0x3e76fb48	0.24119294
81	0x3ec4ac08	0.384125
82	0x3eca6a84	0.3953439
83	0x3e437d9d	0.19090886
84	0x3dfaf65d	0.12254021
85	0xbe2b4000	-0.16723633
86	0xbd5f427e	-0.05450677
87	0xbebec67b	-0.37260804
88	0xbd5b343e	-0.05351662
89	0x3ea51213	0.32240352
90	0xbd43d818	-0.047813505
91	0xbe126887	-0.14297687
92	0xbe256ad9	-0.1615404
93	0xbdde1df0	-0.10845554
94	0x3df7caca	0.12099226
95	0xbe8803bb	-0.26565346
96	0x39fc68b7	0.00048143204
97	0x3e073464	0.13203579
98	0x3d4f291e	0.05057632
99	0x3e11cb42	0.14237693

bias f4 [10]
0	0xbe299d92	-0.16564015
1	0xbc29952c	-0.010350507
2	0xbe15b381	-0.14619257
3	0x3e8f772b	0.28020605
4	0xbdb789a8	-0.08961803
5	0x3d1e669a	0.038672067
6	0xbe98f4d2	-0.29874283
7	0x3e85de3d	0.26146117
8	0xbe09e3f3	-0.13465862
9	0x3d1f0b89	0.03882936

weight f4 [4, 10]
0	0xbe14ae4f	-0.14519618
1	0xbda30d32	-0.07961501
2	0xbe950820	-0.2910776
3	0x3d8ea8a9	0.06965763
4	0x3ea03768	0.31292272
5	0xbe721bb7	-0.23643385
6	0x3e07e6b3	0.13271599
7	0xb7e58f05	-2.7365526e-05
8	0x3ea30bae	0.31844848
9	0xbd4f22d0	-0.05057031
10	0xbe84ed0d	-0.25962105
11	0xbe27a2e2	-0.16370729
12	0xbe52036e	-0.20509121
13	0xbcadd8f2	-0.021221612
14	0x3e5bf625	0.21480615
15	0x3d9dbd9d	0.077021815
16	0xbdd468ba	-0.103715375
17	0x3dc912c1	0.0981803
18	0x3e512ea0	0.20427942
19	0xbc79d520	-0.015248567
20	0x3e5b8e17	0.21440922
21	0xbdf15ff4	-0.1178588
22	0xbc6555da	-0.013997519
23	0xbecbb342	-0.397852
24	0x3d43cfe9	0.0478057
25	0xbd409af5	-0.04702278
26	0xbee438c4	-0.4457456
27	0xbec97aaf	-0.39351413
28	0xbf25a92e	-0.6471127
29	0x3e77e168	0.2420708
30	0xbe1e67b4	-0.15469247
31	0x3e23e6dc	0.16006035
32	0x3e15ea17	0.1464008
33	0xbf05c534	-0.52254033
34	0x3dec7586	0.11545853
35	0xbc9257ad	-0.017864073
36	0xbe0a6839	-0.1351632
37	0xbdd71da7	-0.105037026
38	0xbed3c300	-0.4135971
39	0xbbf4095a	-0.007447404

bias f4 [4]
0	0x3df814b2	0.12113322
1	0x3db24363	0.08704259
2	0x3ebe0193	0.37110576
3	0xbeccfbdb	-0.400359
